…
2022-12-10 120304.570145 I tensorflowcoreplatformcpu_feature_guard.cc193] This TensorFlow binary is optimized with oneAPI Deep Neural Network Library (oneDNN) to use the following CPU instructions in performance-critical operations  AVX AVX2
To enable them in other operations, rebuild TensorFlow with the appropriate compiler flags.
Model sequential
__________________________________________________________________________________________
 Layer (type)                           Output Shape                        Param #
==========================================================================================
 dense (Dense)                          (None, 64)                          1280

 dropout (Dropout)                      (None, 64)                          0

 dense_1 (Dense)                        (None, 64)                          4160

 dropout_1 (Dropout)                    (None, 64)                          0

 dense_2 (Dense)                        (None, 64)                          4160

 dropout_2 (Dropout)                    (None, 64)                          0

 dense_3 (Dense)                        (None, 2)                           130

==========================================================================================
Total params 9,730
Trainable params 9,730
Non-trainable params 0
__________________________________________________________________________________________
None
Epoch 110
2396523965 [==============================] - 311s 13msstep - loss 9.5523e-04 - accuracy 0.9997 - val_loss 5.0293e-04 - val_accuracy 0.9998
…
